…
2022-04-13 18:59:14.759227: I tensorflow/core/common_runtime/gpu/gpu_device.cc:1525] Created device /job:localhost/replica:0/task:0/device:GPU:1 with 
2022-04-13 18:59:14.760796: I tensorflow/core/common_runtime/gpu/gpu_device.cc:1525] Created device /job:localhost/replica:0/task:0/device:GPU:2 with 
2022-04-13 18:59:14.762392: I tensorflow/core/common_runtime/gpu/gpu_device.cc:1525] Created device /job:localhost/replica:0/task:0/device:GPU:3 with 
Model: "sequential"
_________________________________________________________________
 Layer (type)                Output Shape              Param #   
=================================================================
 conv2d (Conv2D)             (None, 254, 254, 32)      896       
                                                                 
 max_pooling2d (MaxPooling2D  (None, 127, 127, 32)     0         
 )                                                               
                                                                 
 conv2d_1 (Conv2D)           (None, 127, 127, 64)      18496     
                                                                 
 max_pooling2d_1 (MaxPooling  (None, 63, 63, 64)       0         
 2D)                                                             
                                                                 
 conv2d_2 (Conv2D)           (None, 63, 63, 64)        36928     
                                                                 
 max_pooling2d_2 (MaxPooling  (None, 31, 31, 64)       0         
 2D)                                                             
                                                                 
 conv2d_3 (Conv2D)           (None, 31, 31, 64)        36928     
                                                                 
 max_pooling2d_3 (MaxPooling  (None, 15, 15, 64)       0         
 2D)                                                             
                                                                 
 conv2d_4 (Conv2D)           (None, 15, 15, 64)        36928     
                                                                 
 max_pooling2d_4 (MaxPooling  (None, 7, 7, 64)         0         
 2D)                                                             
                                                                 
 flatten (Flatten)           (None, 3136)              0         
                                                                 
 dense (Dense)               (None, 3136)              9837632   
                                                                 
 dense_1 (Dense)             (None, 1568)              4918816   
                                                                 
 dense_2 (Dense)             (None, 784)               1230096   
                                                                 
 dense_3 (Dense)             (None, 392)               307720    
                                                                 
 dense_4 (Dense)             (None, 196)               77028     
                                                                 
 dense_5 (Dense)             (None, 98)                19306     
                                                                 
 dense_6 (Dense)             (None, 2)                 198       
                                                                 
=================================================================
Total params: 16,520,972
Trainable params: 16,520,972
Non-trainable params: 0
_________________________________________________________________
None
Epoch 1/30
2022-04-13 18:59:20.925124: I tensorflow/stream_executor/cuda/cuda_dnn.cc:368] Loaded cuDNN version 8101
…
